DWT_quantized/weights/dwt_quantized_TFLite.tflite (tflite, 795552 bytes, 12 tensors)

Predict/fc0/BiasAdd/ReadVariableOp/resource f4 [32]
0.007045609 -0.0027571288 -0.0031622376 -0.023687325 -0.040812217 -0.024941549 -0.019833727 0.05235842
-0.0050583137 0.016075324 0.008801014 -0.006322773 0.04999476 -0.040082376 -0.01823232 -0.00026560202
-0.00514452 -0.04337224 -0.006318462 -0.006867539 0.10117324 -0.009979073 0.12316096 -0.0018042765
-0.0031622523 -0.0030595385 -0.009468701 -0.007204301 -0.016214818 -0.0050142407 -0.0031617072 -0.003162246
00000000: dade e63b f2b0 34bb 8b3d 4fbb ec0b c2bc
00000010: b62a 27bd 3852 ccbc 577a a2bc c875 563d
00000020: 36c0 a5bb 66b0 833c 2132 103c 442f cfbb
00000030: 4ec7 4c3d 6b2d 24bd f25b 95bc 8040 8bb9
00000040: 5d93 a8bb 17a7 31bd 1a0b cfbb 1809 e1bb
00000050: ea33 cf3d 447f 23bc d03b fc3d 797d ecba
00000060: ca3d 4fbb 8a82 48bb 9c22 1bbc 0f12 ecbb
00000070: f0d4 84bc 804e a4bb a534 4fbb af3d 4fbb

Predict/fc1/BiasAdd/ReadVariableOp/resource f4 [16]
-0.013515117 -0.08975486 -0.11116498 0.12239802 0.089909114 0.09376938 -0.00080308947 0.10846618
-0.1051093 0.065980166 -0.020018395 0.04732495 0.09568894 -0.0060433103 0.037726257 0.051185023
00000000: 826e 5dbc 65d1 b7bd 77aa e3bd d0ab fa3d
00000010: 4522 b83d 290a c03d 6c86 52ba 8423 de3d
00000020: 8b43 d7bd 9c20 873d 9efd a3bc cfd7 413d
00000030: 90f8 c33d f606 c6bb d986 1a3d 63a7 513d

Predict/layer_conv3/BiasAdd/ReadVariableOp/resource f4 [32]
-0.023127785 0.0051596723 -0.076443434 0.020850142 0.07152145 -0.063596554 -0.04524155 0.052541733
-0.031871863 -0.012672283 -0.07052865 -0.061580352 -0.0248183 0.10532802 -0.051277608 -0.037117466
0.011617145 -0.11396567 -0.01413676 -0.043620605 -0.10381099 -0.0026647944 -0.0136560155 0.0050556166
-0.041893326 0.042777054 0.07606284 0.09081831 0.02624131 0.0024168466 -0.14616348 -0.030983953
00000000: 7b76 bdbc 7812 a93b 608e 9cbd ebcd aa3c
00000010: d779 923d e93e 82bd 344f 39bd 0036 573d
00000020: 128c 02bd 689f 4fbc 5371 90bd ae3b 7cbd
00000030: bf4f cbbc 38b6 d73d 7808 52bd 7c08 18bd
00000040: d655 3e3c d566 e9bd de9d 67bc 85ab 32bd
00000050: db9a d4bd d5a3 2ebb 7bbd 5fbc 96a9 a53b
00000060: 5698 2bbd fe36 2f3d d6c6 9b3d f3fe b93d
00000070: 04f8 d63c f563 1e3b e1ab 15be 0fd2 fdbc

Predict/layer_conv4/BiasAdd/ReadVariableOp/resource f4 [64]
0.0071803452 -0.09082283 -0.03028323 -0.026789332 -0.025113292 -0.037162572 -0.1652324 -0.07878003
-0.017881187 -0.102359176 0.07574348 -0.1571939 -0.10713031 -0.022241019 -0.050799537 -0.014586361
-0.010420791 -0.14653307 -0.032488868 0.038422413 -0.036073335 -0.023693325 -0.039076976 0.053127974
0.07095417 -0.06673545 -0.07737016 0.018425647 -0.009489363 -0.026348267 -0.019297337 -0.14781424
-0.07405238 -0.040404756 0.027258305 -0.15540832 0.016552426 0.0034889993 -0.025569117 0.032459937
-0.06204325 0.013340952 0.005700463 -0.029717794 0.045096338 0.019207507 0.002579811 0.1419097
0.059761867 -0.013614714 -0.06376496 -0.062025208 0.07473339 0.06331647 -0.012605127 -0.049863152
0.004272052 -0.019192131 -0.0345355 -0.10884 -0.067095295 -0.028476287 -0.022905888 0.022488866
00000000: 1a49 eb3b 5201 babd 8914 f8bc 4d75 dbbc
00000010: 64ba cdbc c837 18bd af32 29be 6d57 a1bd
00000020: 917b 92bc b0a1 d1bd 661f 9b3d 70f7 20be
00000030: 2367 dbbd cc32 b6bc 2d13 50bd a2fb 6ebc
00000040: f7bb 2abc c40c 16be 0c13 05bd d260 1d3d
00000050: a2c1 13bd 8118 c2bc 2e0f 20bd b89c 593d
00000060: 6b50 913d 98ac 88bd 3f74 9ebd 62f1 963c
00000070: 4679 1bbc 52d8 d7bc 7315 9ebc 9e5c 17be
00000080: c6a8 97bd 757f 25bd cf4c df3c 5c23 1fbe
00000090: f498 873c b2a7 643b 5376 d1bc b6f4 043d
000000a0: 1021 7ebd 0294 5a3c f3ca ba3b bb72 f3bc
000000b0: f0b6 383d 1059 9d3c 0c12 293b c750 113e
000000c0: dcc8 743d 4010 5fbc 3497 82bd 250e 7ebd
000000d0: d20d 993d 11ac 813d bc85 4ebc 4e3d 4cbd
000000e0: 92fc 8b3b d138 9dbc 1975 0dbd 82e7 debd
000000f0: 4269 89bd 1a47 e9bc 21a5 bbbc 923a b83c

Predict/layer_conv5/BiasAdd/ReadVariableOp/resource f4 [128]
0.008059779 -0.06228651 -0.020546753 0.050960165 -0.03818043 -0.03341905 -0.031034308 -0.016384566
0.013048023 -0.21211082 -0.01498809 -0.02805139 0.037415452 -0.08126056 0.0687835 0.05910768
-0.020429295 -0.026121365 -0.017116934 -0.0055957194 -0.19210285 -0.016671639 -0.018741827 -0.02277501
-0.025840912 0.02303266 -0.015008301 -0.00024495833 -0.01949577 0.05569483 -0.01408475 0.05550043
0.030895567 0.12385073 0.09999019 0.0100882845 -0.016344981 0.028943758 0.0075653335 -0.0114203
-0.02587834 0.017785091 -0.02786947 0.10060767 -0.13332361 0.050268292 -0.04407695 -0.110627964
-0.024436925 -0.0034413515 -0.026801946 -0.028052239 0.031717155 0.05533462 -0.003636268 -0.027951213
0.016348857 0.061910756 0.02273314 -0.022254115 -0.011471104 -0.040926185 0.093669966 -0.018108223
-0.021362219 -0.026507901 0.09770573 -0.04807518 -0.0119592715 0.0020363263 -0.023701442 0.067565724
0.10367913 -0.023671806 -0.027953964 -0.026477009 0.0748053 -0.034237612 -0.031596474 -0.02170317
0.057375968 -0.009442927 -0.020263145 0.008129587 0.061248153 -0.013095952 -0.09748257 0.079889834
-0.020349996 0.014712717 -0.14654109 -0.026028935 -0.03959604 -0.04020382 -0.13268434 -0.0152882235
-0.0152878985 0.07741697 -0.034845233 -0.063937135 -0.11606288 -0.010119537 -0.18342449 0.018911634
0.03925203 -0.046659112 0.017440597 0.05613697 -0.09870593 -0.054481514 -0.01790403 0.09065868
0.12044699 -0.021309694 -0.06972257 0.06754574 0.020753529 -0.023191275 -0.058456965 -0.026414676
-0.004939112 -0.03731093 -0.029021 -0.0033104531 -0.100007884 -0.0069314 0.074525945 -0.023252763
00000000: 2a0d 043c 2420 7fbd aa51 a8bc 9bbb 503d
00000010: 1563 1cbd 6ae2 08bd a93b febc ed38 86bc
00000020: 60c7 553c 9433 59be 9b90 75bc 07cc e5bc
00000030: f240 193d f06b a6bd 5dde 8c3d e51a 723d
00000040: 565b a7bc 79fc d5bc d038 8cbc 4c5c b7bb
00000050: 9cb6 44be f692 88bc 7688 99bc a892 babc
00000060: 52b0 d3bc fdae bc3c 60e5 75bc c06d 80b9
00000070: 98b5 9fbc 4320 643d b9c3 66bc 6b54 633d
00000080: b318 fd3c 74a5 fd3d a8c7 cc3d 5549 253c
00000090: e9e5 85bc 761b ed3c 9ee6 f73b 361c 3bbc
000000a0: d0fe d3bc 0ab2 913c 844e e4bc 650b ce3d
000000b0: fc85 08be 20e6 4d3d 088a 34bd ea90 e2bd
000000c0: f22f c8bc 4c88 61bb c18f dbbc cfcd e5bc
000000d0: d9e9 013d 8ea6 623d 744e 6ebb f1f9 e4bc
000000e0: 0aee 853c 2296 7d3d da3a ba3c 434e b6bc
000000f0: 4cf1 3bbc 37a2 27bd 0ad6 bf3d b257 94bc
00000100: d2ff aebc 1927 d9bc f119 c83d 7bea 44bd
00000110: d2f0 43bc e373 053b 8729 c2bc e65f 8a3d
00000120: b955 d43d 60eb c1bc b6ff e4bc 50e6 d8bc
00000130: 8533 993d bd3c 0cbd 4e6b 01bd d9ca b1bc
00000140: 1003 6b3d 82b6 1abc e5fe a5bc f631 053c
00000150: 58df 7a3d 6790 56bc f1a4 c7bd 489d a33d
00000160: 09b5 a6bc 9c0d 713c de0e 16be a23a d5bc
00000170: 752f 22bd c3ac 24bd 67de 07be 757b 7abc
00000180: 187a 7abc ca8c 9e3d e0b9 0ebd 79f1 82bd
00000190: 60b2 edbd 6acc 25bc a1d3 3bbe 92ec 9a3c
000001a0: bdc6 203d a01d 3fbd 95df 8e3c e1ef 653d
000001b0: 5626 cabd 0228 5fbd 79ab 92bc 42ab b93d
000001c0: e9ac f63d ab91 aebc b5ca 8ebd 6c55 8a3d
000001d0: 4e03 aa3c a1fb bdbc 9270 6fbd 9763 d8bc
000001e0: 46d8 a1bb 59d3 18bd 73bd edbc 30f4 58bb
000001f0: efd0 ccbd cc20 e3bb 0fa1 983d 947c bebc

Predict/op/BiasAdd/ReadVariableOp/resource f4 [4]
0.034826558 -0.26462284 0.14892343 0.043569352
00000000: 4ba6 0e3d a57c 87be 627f 183e c775 323d

Predict/fc0/MatMul i1 [32, 21632] scale=0.004139983 zero_point=0
-0.008279966 0.016559932 0.008279966 0.008279966 -0.004139983 0.008279966 0.008279966 -0.008279966
-0.008279966 0.008279966 0.045539815 0.008279966 -0.012419949 0.0 0.012419949 0.012419949
0.004139983 0.012419949 0.0 0.012419949 0.0 -0.004139983 -0.004139983 0.004139983
0.004139983 0.016559932 -0.016559932 0.012419949 -0.016559932 -0.004139983 0.008279966 -0.008279966
-0.008279966 0.016559932 -0.016559932 0.008279966 0.0 -0.004139983 -0.004139983 -0.004139983
-0.004139983 0.004139983 -0.008279966 0.012419949 0.0 0.012419949 -0.008279966 0.012419949
-0.012419949 0.008279966 -0.012419949 0.016559932 0.004139983 -0.016559932 -0.008279966 -0.004139983
0.016559932 0.008279966 -0.008279966 0.012419949 0.004139983 0.0 0.020699915 0.0
-0.004139983 0.0 0.004139983 0.0 0.008279966 0.0 -0.012419949 0.020699915
0.004139983 -0.008279966 -0.016559932 -0.012419949 0.0 -0.012419949 -0.008279966 -0.004139983
0.0 -0.004139983 0.004139983 0.008279966 0.004139983 -0.016559932 0.0 -0.004139983
0.0 -0.012419949 0.004139983 0.012419949 -0.008279966 0.008279966 0.020699915 0.004139983
-0.008279966 0.008279966 0.012419949 -0.016559932 0.012419949 -0.008279966 0.004139983 0.024839899
-0.016559932 0.0 0.0 0.0 0.016559932 -0.004139983 0.004139983 0.016559932
0.020699915 0.004139983 0.0 0.004139983 -0.012419949 0.016559932 0.008279966 -0.012419949
-0.020699915 0.016559932 0.0 0.0 0.004139983 0.0 0.028979883 -0.020699915
-0.008279966 0.004139983 -0.008279966 0.008279966 0.012419949 0.004139983 0.0 -0.016559932
-0.004139983 0.004139983 0.05381978 0.008279966 0.004139983 0.004139983 -0.008279966 0.004139983
0.0 0.004139983 0.0 0.012419949 -0.008279966 0.004139983 0.008279966 0.016559932
-0.012419949 0.004139983 -0.008279966 0.004139983 -0.008279966 0.020699915 0.012419949 0.008279966
0.004139983 0.004139983 0.004139983 0.004139983 -0.016559932 0.004139983 0.004139983 0.004139983
-0.004139983 -0.008279966 -0.004139983 0.004139983 0.020699915 0.0 -0.008279966 0.024839899
-0.008279966 -0.012419949 0.016559932 -0.016559932 0.0 0.0 -0.008279966 0.004139983
0.008279966 -0.004139983 0.016559932 -0.012419949 0.020699915 0.016559932 0.012419949 0.0
0.0 -0.008279966 0.004139983 0.012419949 -0.012419949 -0.004139983 0.0 0.0
0.012419949 0.004139983 -0.008279966 0.0 0.0 0.0 0.016559932 0.008279966
0.016559932 -0.008279966 -0.008279966 0.012419949 -0.008279966 -0.004139983 0.004139983 -0.008279966
-0.008279966 0.008279966 0.028979883 0.004139983 -0.004139983 0.012419949 0.045539815 0.012419949
-0.008279966 0.004139983 0.012419949 0.012419949 0.012419949 -0.004139983 0.016559932 0.008279966
-0.016559932 0.0 -0.012419949 0.008279966 -0.012419949 -0.020699915 0.0 0.012419949
0.0 -0.008279966 -0.016559932 0.016559932 0.004139983 -0.016559932 -0.012419949 0.0
0.004139983 0.004139983 0.004139983 -0.012419949 -0.004139983 0.004139983 0.008279966 -0.012419949
00000000: fe04 0202 ff02 02fe fe02 0b02 fd00 0303
00000010: 0103 0003 00ff ff01 0104 fc03 fcff 02fe
00000020: fe04 fc02 00ff ffff ff01 fe03 0003 fe03
00000030: fd02 fd04 01fc feff 0402 fe03 0100 0500
00000040: ff00 0100 0200 fd05 01fe fcfd 00fd feff
00000050: 00ff 0102 01fc 00ff 00fd 0103 fe02 0501
00000060: fe02 03fc 03fe 0106 fc00 0000 04ff 0104
00000070: 0501 0001 fd04 02fd fb04 0000 0100 07fb
00000080: fe01 fe02 0301 00fc ff01 0d02 0101 fe01
00000090: 0001 0003 fe01 0204 fd01 fe01 fe05 0302
000000a0: 0101 0101 fc01 0101 fffe ff01 0500 fe06
000000b0: fefd 04fc 0000 fe01 02ff 04fd 0504 0300
000000c0: 00fe 0103 fdff 0000 0301 fe00 0000 0402
000000d0: 04fe fe03 feff 01fe fe02 0701 ff03 0b03
000000e0: fe01 0303 03ff 0402 fc00 fd02 fdfb 0003
000000f0: 00fe fc04 01fc fd00 0101 01fd ff01 02fd

Predict/fc1/MatMul f4 [16, 32]
0.1295025 0.033517182 0.06522435 -0.2457389 0.33734712 0.25721797 -0.023081671 -0.27832064
-0.3307538 -0.15177816 0.2039397 0.013752832 -0.08096692 0.14126901 0.45515877 0.01659985
-0.19556946 0.3546412 -0.20707837 0.005841309 0.13502789 -0.19513151 -0.15667588 -0.10975833
-0.32304487 -0.14719261 -0.22469507 0.33206552 0.012692176 0.098286904 0.28842413 0.3254416
0.19730164 -0.13813785 0.247793 -0.17463362 0.29118243 0.3390073 0.35779113 0.341489
-0.33140194 0.24999905 -0.48593634 0.31326208 -0.34765175 0.045336593 0.30086133 0.031133708
-0.13712612 0.15021041 -0.057564132 0.49273905 -0.31832153 0.042690042 0.19821599 -0.34338152
-0.20715882 -0.22874472 -0.11291456 -0.22321905 -0.23842259 0.19080485 -0.0020695422 -0.12916087
-0.021735707 0.12074129 -0.24657075 0.084620774 0.08490968 0.049135312 0.17847697 -0.25205404
0.07031657 0.18666369 0.091997966 -0.076966465 -0.2123935 -0.23279521 -0.010716649 -0.12495052
-0.23939458 -0.24671945 -0.10016349 -0.2769685 0.04558913 0.29643095 -0.12285588 0.19230561
-0.088952966 0.011896439 -0.028089607 -0.014420617 0.24598604 -0.31488845 0.13791308 0.08629485
-0.2054051 -0.16575024 0.2910067 -0.10642545 -0.14174116 0.36686966 -0.24191478 0.43769306
-0.12780063 0.2618504 -0.4256724 0.33407572 -0.096311815 -0.24731396 -0.1315632 0.2351048
-0.14464024 -0.20651719 0.34595838 0.28400642 -0.03449219 0.060971122 0.73391557 -0.29397818
0.13418984 -0.015790714 0.17391033 -0.010452556 -0.16014138 -0.002814455 -0.23932996 0.03293522
-0.18949854 -0.20861274 0.265534 0.38184386 0.2049987 -0.3522711 0.13028578 0.124128476
0.22237846 0.016023984 0.002393825 -0.25182402 -0.37279657 0.18855852 0.011739974 0.297127
-0.112889744 -0.09094538 0.245554 -0.23979682 0.42273095 0.29597285 -0.120500945 0.09261072
0.11631039 -0.03481848 -4.7892332e-05 -0.04985584 -0.10675543 -0.32072556 0.2801244 -0.0026312172
0.36076897 -0.2952883 -0.010447008 -0.3074599 -0.34620538 -0.24966261 -0.31115672 0.30204308
0.19717087 0.08433305 0.27555194 0.015939608 -0.12406979 -0.26515484 -0.047936082 -0.062005315
0.35717803 0.03864551 -0.18750384 -0.23916937 0.5009923 0.34624615 0.3137944 -0.024382947
0.18466939 0.15187916 0.020833097 -0.26580912 -0.3627253 0.3696714 0.13341558 -0.18656859
0.19290286 -0.18525411 -0.078384936 -0.1154941 0.33330873 -0.07961978 0.27166134 -0.18104322
-0.25194243 -0.029497173 0.0077957683 0.27598086 -0.23566568 0.425348 0.41379893 0.30305782
-0.2143248 0.0005630746 -0.03418316 -0.017257944 -0.2997453 0.118469685 0.109404445 -0.047788087
-0.21393466 -0.31166452 -0.25328532 0.33431736 -0.3226501 0.099141456 0.3061292 0.30004025
0.29189947 -0.055830754 0.18741068 0.31013945 0.21552385 -0.39067176 0.1624918 -0.34326833
0.06759692 -0.051843163 0.25574225 0.061820414 -0.30773276 0.11791144 -0.15296051 -0.18563786
0.2381565 0.2158674 0.038467817 0.38945875 0.39471492 0.18543021 0.4083248 -0.12170436
0.07425862 -0.16370152 -0.008825394 0.13129243 0.14498654 0.11043666 -0.1964357 -0.16504247
00000000: 4e9c 043e 5049 093d 5894 853d faa2 7bbe
00000010: c3b8 ac3e 13b2 833e c615 bdbc 0b80 8ebe
00000020: 9058 a9be bc6b 1bbe 92d5 503e 8f53 613c
00000030: fcd1 a5bd d3a8 103e 920a e93e 69fc 873c
00000040: 5c43 48be 8893 b53e 5a0c 54be 7468 bf3b
00000050: c044 0a3e 8ed0 47be a46f 20be fac8 e0bd
00000060: 2366 a5be a9b9 16be 7716 66be 7e04 aa3e
00000070: d8f2 4f3c a54a c93d 54ac 933e 48a0 a63e
00000080: 7109 4a3e 0274 0dbe 73bd 7d3e 28d3 32be
00000090: dd15 953e 5d92 ad3e 6630 b73e a5d7 ae3e
000000a0: 84ad a9be c0ff 7f3e a6cc f8be e363 a03e
000000b0: 69ff b1be ddb2 393d 7f0a 9a3e 1e0c ff3c
000000c0: ca6a 0cbe c2d0 193e 5ec8 6bbd 4b48 fc3e
000000d0: 0afb a2be c1db 2e3d 22f9 4a3e b4cf afbe
000000e0: 7121 54be 0e3c 6abe c03f e7bd 8993 64be
000000f0: 0d25 74be 5962 433e 28a1 07bb bf42 04be
00000100: 150f b2bc 3647 f73d 0b7d 7cbe a84d ad3d
00000110: 20e5 ad3d 1c42 493d abc2 363e 3a0d 81be
00000120: 2202 903d c424 3f3e 6e69 bc3d 98a0 9dbd
00000130: af7d 59be de61 6ebe e294 2fbc 0fe6 ffbd
00000140: da23 75be 06a4 7cbe 8422 cdbd d1ce 8dbe
00000150: abbb 3a3d ccc5 973e dd9b fbbd c3eb 443e
00000160: f92c b6bd 48e9 423c 2d1c e6bc 7444 6cbc
00000170: c4e3 7b3e 0f39 a1be 1639 0d3e 5bbb b03d
00000180: b755 52be 6eba 29be d5fe 943e 96f5 d9bd
00000190: 9824 11be 57d6 bb3e 82b8 77be 4e19 e03e
000001a0: 2bde 02be 4111 863e bcf1 d9be f90b ab3e
000001b0: 213f c5bd df3f 7dbe 81b8 06be 50bf 703e
000001c0: 921c 14be 3e79 53be 7521 b13e 4a69 913e
000001d0: af47 0dbd dbbc 793d e4e1 3b3f 4f84 96be
000001e0: 1069 093e 875b 81bc 8d15 323e 3341 2bbc
000001f0: 1afc 23be b872 38bb ea12 75be 15e7 063d
00000200: e80b 42be 949e 55be 13f4 873e 0a81 c33e
00000210: 2eeb 513e e15c b4be a369 053e 1237 fe3d
00000220: 2eb7 633e bb44 833c b8e1 1c3b 14ef 80be
00000230: 31df bebe 7c15 413e 0559 403c 0821 983e
00000240: bd32 e7bd 9241 babd 8272 7b3e 4c8d 75be
00000250: 3170 d83e c189 973e 33c9 f6bd b0aa bd3d
00000260: 2434 ee3d d39d 0ebd 00e0 48b8 a335 4cbd
00000270: 97a2 dabd 2436 a4be 776c 8f3e 8070 2cbb
00000280: b6b6 b83e 0730 97be ed29 2bbc 626b 9dbe
00000290: d541 b1be 8ea7 7fbe ef4f 9fbe 64a5 9a3e
000002a0: 29e7 493e ceb6 ac3d 2515 8d3e c893 823c
000002b0: 4d18 febd 60c2 87be a058 44bd 49f9 7dbd
000002c0: 0ae0 b63e c14a 1e3d 0201 40be d1e8 74be
000002d0: 0841 003f 2d47 b13e a9a9 a03e bfbe c7bc
000002e0: f919 3d3e 3686 1b3e 2caa aa3c 2218 88be
000002f0: 21b7 b9be 9245 bd3e 189e 083e d60b 3fbe
00000300: 5488 453e 41b3 3dbe 4888 a0bd 2c88 ecbd
00000310: 71a7 aa3e b20f a3bd 3217 8b3e 6563 39be
00000320: 99fe 80be 0ea4 f1bc a573 ff3b 5d4d 8d3e
00000330: 5852 71be 37c7 d93e 74dd d33e 652a 9b3e
00000340: f677 5bbe 4c9b 133a a403 0cbd 8860 8dbc
00000350: 3778 99be 3ca0 f23d 700f e03d 71bd 43bd
00000360: b011 5bbe 7e92 9fbe 9dae 81be a52b ab3e
00000370: 6532 a5be ad0a cb3d f7bc 9c3e e09e 993e
00000380: d973 953e caae 64bd 96e8 3f3e 99ca 9e3e
00000390: 49b2 5c3e 2106 c8be 4064 263e dec0 afbe
000003a0: 4170 8a3d 7f59 54bd a6f0 823e 6737 7d3d
000003b0: 268f 9dbe 8e7b f13d aea1 1cbe da17 3ebe
000003c0: 4cdf 733e 580c 5d3e 6e90 1d3d 2367 c73e
000003d0: 1318 ca3e 6be1 3d3e f30f d13e 2340 f9bd
000003e0: e714 983d 5fa1 27be 6398 10bc 8671 063e
000003f0: 5a77 143e 9e2c e23d 7126 49be e500 29be

Predict/op/MatMul f4 [4, 16]
-0.48414522 0.031716593 0.20613562 0.22340122 -0.5069606 -0.3344511 -0.5393215 -0.41864175
-0.18524985 -0.46732357 0.3219296 0.11332368 0.003324661 -0.07256279 -0.30300644 0.5928479
0.2829663 0.148478 0.083326556 -0.6380779 -0.6763274 -0.55117023 0.4295619 0.15431377
0.1562056 0.18278475 -0.5438411 -0.52303064 -0.75322634 0.4104439 0.02488836 0.08682701
-0.7031561 -0.27806377 -0.303959 0.52321976 0.06491821 0.31483606 0.10163337 0.72306997
-0.1087221 0.7043935 -0.572051 -0.32363632 -0.13255426 -0.3001725 -1.2728437 -1.0189828
-0.007653434 -0.70203716 -0.17523034 -0.681296 0.16113193 0.5485911 -0.15881382 0.44111055
0.40185845 0.23837242 -0.050839607 0.16422822 0.3556728 -1.0397383 0.06507934 0.3567321
00000000: e2e1 f7be 42e9 013d 3715 533e 4ac3 643e
00000010: 2bc8 01bf 2d3d abbe f910 0abf 3658 d6be
00000020: 23b2 3dbe 0945 efbe f5d3 a43e 3f16 e83d
00000030: 8ee2 593b cd9b 94bd a923 9bbe e1c4 173f
00000040: f5e0 903e 9e0a 183e 1da7 aa3d 1359 23bf
00000050: cb23 2dbf 7e19 0dbf 8aef db3e 6e04 1e3e
00000060: 5cf4 1f3e ed2b 3b3e 2c39 0bbf 56e5 05bf
00000070: 71d3 40bf b425 d23e ade2 cb3c 5cd2 b13d
00000080: 0a02 34bf 605e 8ebe 84a0 9bbe bbf1 053f
00000090: d7f3 843d 3132 a13e 2825 d03d 1d1b 393f
000000a0: b1a9 debd 2253 343f ef71 12bf a9b3 a5be
000000b0: 4ebc 07be 36b0 99be 8bec a2bf 076e 82bf
000000c0: a8c9 fabb b5b8 33bf 956f 33be 6a69 2ebf
000000d0: c5ff 243e 7770 0c3f 17a0 22be 3ed9 e13e
000000e0: 64c0 cd3e e617 743e 313d 50bd 712b 283e
000000f0: bf1a b63e 2516 85bf 5148 853d 97a5 b63e

Predict/layer_conv3/Conv2D f4 [32, 3, 3, 3]
-0.053414386 -0.08609241 -0.0073723705 0.15669686 -0.0918882 0.066669926 -0.15775923 -0.09698788
0.061992735 0.073713146 -0.06489093 -0.14195104 0.1976377 0.16979432 0.20380186 -0.009779864
-0.08626719 -0.07848999 -0.02795888 -0.021325942 -0.15405127 0.085735105 -0.035331424 0.09566585
-0.0491234 -0.019627204 -0.04467556 0.105346896 0.028605558 0.15352014 -0.06796382 -0.13690779
-0.002417431 -0.05574564 0.02647726 -0.09073593 -0.050384697 0.018041614 0.115729615 -0.0024822617
-0.056628823 -0.045787044 -0.076900035 -0.002332234 0.1027398 0.09579777 -0.028072253 -0.021854317
-0.08438102 -0.11928518 0.01785861 0.062494174 -0.11438732 0.13404001 -0.15062681 -0.18292543
-0.1859733 0.18792495 0.02463109 0.13573542 0.11512954 -0.02970623 0.021056531 0.0932484
-0.04815323 0.019037748 0.07861369 0.02440557 -0.035304774 -0.125468 -0.016701765 -0.10413046
0.05475589 0.037520256 0.103683315 0.004259834 -0.12182302 -0.11160467 0.13154969 0.11577336
-0.055459097 0.17862315 0.20083952 0.06848477 -0.014932024 -0.058394555 -0.07605227 -0.1264026
-0.14544557 -0.07470046 -0.106769264 -0.055851515 -0.09678091 0.027900625 0.014257968 0.0102577135
-0.01630125 -0.17540988 -0.13379627 0.045968004 -0.09447681 0.04275255 0.1547706 0.14011572
0.116558895 0.06594933 -0.1595061 -0.06313032 -0.050009083 0.1262892 0.15475616 0.008698861
0.11258641 -0.012588791 -0.1542959 -0.25053677 -0.111711435 -0.0065862485 0.026986398 0.19251893
0.05763797 -0.08974437 -0.10118749 -0.22591764 -0.33272415 -0.24831378 0.17493114 0.16897798
0.1399566 0.05682719 -0.060045738 -0.14282301 -0.25490057 -0.26729754 -0.33558482 0.07145761
0.04865257 -0.0006023479 0.029275807 0.031764727 -0.03857457 -0.023033096 0.044837527 0.10014996
0.08274414 0.11229715 0.11706221 -0.16800955 -0.048040383 -0.12751499 0.0025731842 0.0149431145
-0.13555281 0.06521118 0.002635033 0.018978316 -0.105783775 -0.14836262 -0.054192945 0.1615597
0.08200849 -0.093695566 0.11333992 0.1251754 -0.0070832046 -0.02531936 0.11668326 0.09934787
0.096299134 -0.13385251 0.057878476 0.08819547 0.10805981 0.0036124294 0.1288903 -0.018719275
-0.09276555 -0.1258829 0.07215505 -0.031371363 -0.022541404 -0.09950477 0.14233541 -0.14606392
0.03902836 0.04197967 -0.28106293 -0.13715008 -0.12804385 0.093306296 0.09323134 0.17271382
0.0011124449 0.0034947083 0.12212885 -0.047215145 0.012136906 -0.09740138 0.09429242 0.13554767
0.13432819 0.022909438 -0.048534833 0.021060219 -0.18224314 0.0030615344 0.04685827 -0.12309016
0.11379862 0.048917674 -0.010230076 -0.1011341 -0.045271233 -0.19115952 -0.20682976 -0.10579081
0.15321541 0.01412678 0.10791974 -0.06221038 0.14782113 -0.007962145 -0.07867482 -0.04861368
-0.056401487 0.12113853 0.059183463 0.10095982 -0.05276234 0.09214792 0.047615487 -0.020247258
-0.16700177 -0.062856846 -0.046043113 -0.08670325 0.046245072 0.07384568 -0.011494495 0.00907369
-0.08265311 0.0020546375 -0.0897587 -0.07882973 0.17592819 0.05821322 0.13960041 0.03723462
0.1556818 -0.12012959 -0.036966108 0.07223968 -0.007402059 0.06766615 0.021426832 0.029340997
00000000: 0bc9 5abd 3851 b0bd ed93 f1bb 2475 203e
00000010: e12f bcbd 3e8a 883d a38b 21be 95a1 c6bd
00000020: 18ec 7d3d ebf6 963d 89e5 84bd 9d5b 11be
00000030: 8a61 4a3e 90de 2d3e 6fb1 503e b93b 20bc
00000040: daac b0bd 5cbf a0bd 050a e5bc beb3 aebc
00000050: 9ebf 1dbe e395 af3d afb7 10bd 75ec c33d
00000060: 9e35 49bd 3bc9 a0bc b8fd 36bd 1dc0 d73d
00000070: 3456 ea3c 6234 1d3e 9e30 8bbd 8e31 0cbe
00000080: c36d 1ebb 8a55 64bd d7e6 d83c c2d3 b9bd
00000090: 2f60 4ebd 02cc 933c a603 ed3d 71ad 22bb
000000a0: a0f3 67bd 328b 3bbd c47d 9dbd 65d8 18bb
000000b0: 3f69 d23d 9f31 c43d c8f7 e5bc d307 b3bc
000000c0: f5cf acbd ca4b f4bd 384c 923c e4f9 7f3d
000000d0: e643 eabd c941 093e ea3d 1abe ce50 3bbe
000000e0: c96f 3ebe 666f 403e 24c7 c93c 3afe 0a3e
000000f0: 09c9 eb3d 7b5a f3bc bf7e ac3c 04f9 be3d
00000100: 523c 45bd 0df5 9b3c 3700 a13d 31ee c73c
00000110: bd9b 10bd af7a 00be 24d2 88bc 5a42 d5bd
00000120: b647 603d d7ae 193d eb57 d43d 1496 8b3b
00000130: 597e f9bd fd90 e4bd f6b4 063e 951a ed3d
00000140: 1429 63bd fde8 363e e0a8 4d3e be41 8c3d
00000150: 73a5 74bc 212f 6fbd 4bc1 9bbd af6f 01be
00000160: afef 14be 8efc 98bd d8a9 dabd 8fc4 64bd
00000170: 1235 c6bd da8f e43c 419a 693c f80f 283c
00000180: 338a 85bc a69e 33be e401 09be f248 3c3d
00000190: 0f7d c1bd 4c1d 2f3d 2f7c 1e3e 7f7a 0f3e
000001a0: 6eb6 ee3d 7110 873d 9155 23be 784a 81bd
000001b0: 53d6 4cbd f551 013e 6678 1e3e ab85 0e3c
000001c0: b493 e63d 3741 4ebc bfff 1dbe 5b46 80be
000001d0: f7c8 e4bd 75d1 d7bb 9412 dd3c af23 453e
000001e0: cb15 6c3d e5cb b7bd 633b cfbd f456 67be
000001f0: d25a aabe f845 7ebe 2621 333e 9008 2d3e
00000200: c850 0f3e a1c3 683d 85f2 75bd 3240 12be
00000210: 5482 82be 39db 88be c6d1 abbe 5e58 923d
00000220: eb47 473d e2e6 1dba d1d3 ef3c bb1b 023d
00000230: 5e00 1ebd e7af bcbc 8ea7 373d 6c1b cd3d
00000240: c275 a93d 0cfc e53d 50be ef3d b20a 2cbe
00000250: fec5 44bd 4a93 02be dea2 283b f7d3 743c
00000260: 5bce 0abe 708d 853d 85b0 2c3b 6a78 9b3c
00000270: 2aa5 d8bd 5fec 17be 6cf9 5dbd e86f 253e
00000280: 11f4 a73d 76e3 bfbd c31e e83d fb2d 003e
00000290: 3a1a e8bb 8c6a cfbc a2f7 ee3d e576 cb3d
000002a0: 7b38 c53d a210 09be fb11 6d3d d49f b43d
000002b0: 764e dd3d 82be 6c3b d2fb 033e 2a59 99bc
000002c0: ddfb bdbd 72e7 00be 07c6 933d 427f 00bd
000002d0: c0a8 b8bc 28c9 cbbd 60c0 113e c891 15be
000002e0: 34dc 1f3d e0f2 2b3d 7be7 8fbe 1271 0cbe
000002f0: ed1d 03be 5f17 bf3d 13f0 be3d e4db 303e
00000300: 75cf 913a 7a07 653b b11e fa3d ab64 41bd
00000310: e0d9 463c 607a c7bd 621c c13d 02cd 0a3e
00000320: 548d 093e 93ac bb3c 76cc 46bd 7b86 ac3c
00000330: f29d 3abe 06a4 483b 75ee 3f3d b216 fcbd
00000340: 400f e93d e65d 483d 0c9c 27bc 651f cfbd
00000350: 546e 39bd 52bf 43be 2ecb 53be daa8 d8bd
00000360: 80e4 1c3e 0374 673c 0605 dd3d 50d0 7ebd
00000370: 6c5e 173e a873 02bc 4420 a1bd 231f 47bd
00000380: 3f05 67bd 7a17 f83d 5c6a 723d 06c4 ce3d
00000390: 531d 58bd 0cb8 bc3d 7508 433d 94dd a5bc
000003a0: 8302 2bbe 17bb 80bd b497 3cbd 7991 b1bd
000003b0: 796b 3d3d 673c 973d 6853 3cbc d0a9 143c
000003c0: 0946 a9bd 19a7 063b 69d3 b7bd 7b71 a1bd
000003d0: 8526 343e fc70 6e3d 69f3 0e3e 5483 183d
000003e0: 0d6b 1f3e 8106 f6bd c669 17bd 66f2 933d
000003f0: f98c f2bb 8d94 8a3d 5387 af3c 885c f03c

Predict/layer_conv4/Conv2D i1 [64, 3, 3, 32] scale=0.003233013 zero_point=0
0.009699039 0.0743593 0.025864104 -0.016165065 -0.10668943 0.08405834 0.113155454 0.17134969
0.10992244 0.09699039 -0.009699039 0.009699039 -0.10992244 -0.03233013 -0.08729135 -0.058194235
0.16811667 -0.1260875 0.016165065 -0.11638847 -0.025864104 0.009699039 -0.025864104 -0.003233013
-0.05496122 -0.04526218 0.03233013 0.012932052 -0.16165064 -0.058194235 0.093757376 -0.058194235
-0.08082532 -0.18428174 0.05496122 -0.061427247 -0.12932052 -0.05496122 -0.09052436 -0.14548558
-0.04202917 0.0 0.038796157 0.009699039 -0.04526218 0.019398078 -0.0743593 -0.012932052
-0.061427247 0.006466026 0.15195161 0.019398078 0.093757376 0.03556314 0.0 0.003233013
-0.19074777 0.22631091 -0.103456415 -0.051728208 0.08082532 0.16811667 -0.06466026 -0.009699039
0.009699039 -0.17781572 -0.006466026 -0.2230779 -0.25864103 -0.019398078 -0.051728208 -0.24247597
-0.03233013 -0.006466026 -0.11962148 0.13255353 -0.02263109 -0.058194235 -0.07759231 0.019398078
-0.12285449 -0.113155454 -0.093757376 0.11962148 -0.009699039 0.003233013 -0.03556314 -0.058194235
0.025864104 0.04202917 -0.19398078 -0.13901956 -0.03556314 0.05496122 0.061427247 0.029097117
-0.006466026 0.10992244 0.08729135 0.06466026 -0.15195161 0.1002234 0.08082532 0.16165064
0.12285449 0.25540802 0.10992244 0.093757376 -0.006466026 -0.09699039 -0.06466026 -0.13578655
0.10992244 0.20691283 0.08082532 -0.08082532 -0.003233013 0.07112628 0.04526218 0.093757376
0.03233013 -0.12285449 -0.06466026 0.012932052 -0.025864104 -0.11962148 0.08082532 0.038796157
0.12285449 -0.058194235 0.07112628 -0.006466026 -0.103456415 0.02263109 -0.038796157 0.019398078
-0.03233013 -0.13255353 -0.019398078 0.093757376 -0.03233013 -0.14548558 -0.025864104 0.08729135
-0.12285449 -0.07112628 0.025864104 -0.09699039 -0.02263109 -0.006466026 -0.13255353 0.016165065
-0.016165065 0.113155454 -0.17134969 0.09052436 0.19398078 0.103456415 0.048495196 -0.067893274
-0.019398078 -0.029097117 0.07759231 -0.08729135 -0.02263109 0.003233013 0.07112628 0.058194235
-0.048495196 0.10668943 0.02263109 -0.05496122 0.009699039 0.048495196 -0.0743593 0.0
0.067893274 -0.012932052 0.04526218 0.061427247 -0.051728208 -0.16488366 0.025864104 0.05496122
-0.19074777 0.029097117 -0.13901956 -0.08729135 -0.08729135 -0.15195161 0.048495196 0.038796157
-0.03233013 -0.05496122 -0.05496122 0.03233013 -0.006466026 -0.03556314 0.048495196 0.14225256
0.029097117 -0.04526218 -0.012932052 -0.051728208 0.14548558 -0.03556314 -0.003233013 0.019398078
0.18751475 0.10668943 0.03233013 0.093757376 -0.051728208 -0.08729135 0.04202917 0.038796157
0.10992244 -0.13901956 -0.113155454 -0.093757376 -0.103456415 0.048495196 -0.012932052 0.03556314
0.04526218 0.019398078 -0.11638847 -0.13901956 -0.04202917 -0.0743593 -0.10668943 -0.2004468
-0.1002234 -0.16811667 0.012932052 -0.009699039 0.05496122 -0.10992244 0.006466026 0.051728208
-0.22631091 -0.16488366 -0.061427247 0.061427247 -0.02263109 0.0743593 -0.06466026 -0.048495196
0.07112628 0.14548558 -0.067893274 0.08729135 0.22631091 0.067893274 0.058194235 -0.05496122
00000000: 0317 08fb df1a 2335 221e fd03 def6 e5ee
00000010: 34d9 05dc f803 f8ff eff2 0a04 ceee 1dee
00000020: e7c7 11ed d8ef e4d3 f300 0c03 f206 e9fc
00000030: ed02 2f06 1d0b 0001 c546 e0f0 1934 ecfd
00000040: 03c9 febb b0fa f0b5 f6fe db29 f9ee e806
00000050: dadd e325 fd01 f5ee 080d c4d5 f511 1309
00000060: fe22 1b14 d11f 1932 264f 221d fee2 ecd6
00000070: 2240 19e7 ff16 0e1d 0ada ec04 f8db 190c
00000080: 26ee 16fe e007 f406 f6d7 fa1d f6d3 f81b
00000090: daea 08e2 f9fe d705 fb23 cb1c 3c20 0feb
000000a0: faf7 18e5 f901 1612 f121 07ef 030f e900
000000b0: 15fc 0e13 f0cd 0811 c509 d5e5 e5d1 0f0c
000000c0: f6ef ef0a fef5 0f2c 09f2 fcf0 2df5 ff06
000000d0: 3a21 0a1d f0e5 0d0c 22d5 dde3 e00f fc0b
000000e0: 0e06 dcd5 f3e9 dfc2 e1cc 04fd 11de 0210
000000f0: bacd ed13 f917 ecf1 162d eb1b 4615 12ef

Predict/layer_conv5/Conv2D i1 [128, 3, 3, 64] scale=0.0031161346 zero_point=0
-0.037393615 0.04050975 0.009348404 -0.018696807 -0.009348404 -0.043625884 0.028045211 0.056090422
-0.059206557 0.059206557 -0.08413564 -0.037393615 -0.04674202 -0.0031161346 -0.009348404 -0.009348404
0.009348404 -0.031161346 -0.018696807 -0.10906471 0.015580673 -0.059206557 -0.03427748 0.031161346
0.031161346 -0.018696807 -0.13399379 0.08413564 -0.018696807 -0.015580673 -0.037393615 -0.115296975
-0.07478723 0.043625884 0.0810195 0.04674202 0.08725177 -0.056090422 0.04674202 0.012464538
-0.021812942 -0.099716306 0.059206557 -0.018696807 -0.08413564 -0.021812942 -0.1713874 0.06232269
0.043625884 0.059206557 0.015580673 0.009348404 0.059206557 -0.056090422 -0.0716711 -0.15580672
0.012464538 -0.021812942 -0.006232269 -0.024929076 0.012464538 -0.056090422 -0.006232269 0.006232269
0.0903679 -0.04674202 -0.0031161346 -0.024929076 -0.015580673 0.012464538 -0.012464538 0.11841311
0.037393615 0.10283244 0.059206557 0.06855496 -0.043625884 0.0903679 0.059206557 0.015580673
0.03427748 -0.08725177 -0.024929076 -0.056090422 0.0903679 -0.03427748 0.10283244 -0.16827127
0.0810195 0.043625884 0.04674202 -0.0031161346 0.06232269 -0.043625884 0.009348404 -0.059206557
-0.13087764 -0.03427748 -0.096600175 0.12776151 0.031161346 0.10283244 0.015580673 0.096600175
0.059206557 -0.052974287 -0.06232269 0.018696807 0.105948575 -0.009348404 0.11841311 0.015580673
-0.0716711 -0.006232269 -0.024929076 0.024929076 0.043625884 0.04050975 -0.031161346 0.006232269
-0.0031161346 0.024929076 0.009348404 -0.08413564 -0.009348404 -0.07790336 0.024929076 0.08413564
-0.07790336 0.021812942 -0.015580673 0.006232269 0.009348404 0.018696807 -0.06543882 -0.04674202
0.024929076 -0.08725177 -0.1433422 0.015580673 -0.07478723 0.018696807 -0.021812942 -0.096600175
-0.08413564 0.015580673 -0.015580673 0.024929076 0.009348404 0.04674202 -0.024929076 0.018696807
-0.031161346 -0.03427748 -0.021812942 0.031161346 -0.12152925 -0.0031161346 0.015580673 -0.08725177
-0.024929076 -0.052974287 0.056090422 -0.049858153 0.06543882 -0.028045211 0.0 0.04050975
-0.08413564 -0.056090422 -0.08725177 -0.20878102 -0.12464538 -0.006232269 -0.08413564 0.049858153
-0.028045211 0.031161346 -0.13087764 -0.07790336 -0.059206557 -0.043625884 -0.043625884 -0.14022605
0.006232269 0.04674202 0.043625884 -0.031161346 -0.04674202 -0.04050975 -0.028045211 -0.07478723
-0.14957446 0.037393615 0.0031161346 -0.04050975 -0.06232269 -0.015580673 -0.12152925 -0.06232269
-0.056090422 -0.024929076 -0.07790336 -0.10906471 -0.12464538 -0.07478723 -0.0810195 0.031161346
-0.10906471 -0.07478723 0.037393615 -0.15580672 -0.04050975 -0.06232269 -0.018696807 0.031161346
0.07478723 -0.06543882 -0.09348404 -0.015580673 -0.10283244 0.052974287 -0.006232269 0.031161346
0.06232269 -0.052974287 0.07478723 -0.049858153 -0.015580673 -0.0031161346 -0.037393615 0.009348404
0.028045211 0.009348404 0.0 0.052974287 0.0903679 0.009348404 -0.012464538 -0.043625884
0.06855496 -0.0031161346 -0.024929076 0.043625884 0.052974287 -0.043625884 0.03427748 -0.031161346
0.06232269 0.0031161346 -0.07790336 -0.04674202 -0.059206557 0.012464538 -0.021812942 -0.0031161346
00000000: f40d 03fa fdf2 0912 ed13 e5f4 f1ff fdfd
00000010: 03f6 fadd 05ed f50a 0afa d51b fafb f4db
00000020: e80e 1a0f 1cee 0f04 f9e0 13fa e5f9 c914
00000030: 0e13 0503 13ee e9ce 04f9 fef8 04ee fe02
00000040: 1df1 fff8 fb04 fc26 0c21 1316 f21d 1305
00000050: 0be4 f8ee 1df5 21ca 1a0e 0fff 14f2 03ed
00000060: d6f5 e129 0a21 051f 13ef ec06 22fd 2605
00000070: e9fe f808 0e0d f602 ff08 03e5 fde7 081b
00000080: e707 fb02 0306 ebf1 08e4 d205 e806 f9e1
00000090: e505 fb08 030f f806 f6f5 f90a d9ff 05e4
000000a0: f8ef 12f0 15f7 000d e5ee e4bd d8fe e510
000000b0: f70a d6e7 edf2 f2d3 020f 0ef6 f1f3 f7e8
000000c0: d00c 01f3 ecfb d9ec eef8 e7dd d8e8 e60a
000000d0: dde8 0cce f3ec fa0a 18eb e2fb df11 fe0a
000000e0: 14ef 18f0 fbff f403 0903 0011 1d03 fcf2
000000f0: 16ff f80e 11f2 0bf6 1401 e7f1 ed04 f9ff
