cs_quantized/weights/cs_Quantized_TFLite.tflite (tflite, 817136 bytes, 12 tensors)

Predict/fc0/BiasAdd/ReadVariableOp/resource f4 [32]
-0.003162246 -0.0021516273 -0.0031621768 -0.0031622597 -0.0018407624 -0.05272119 -0.0031622667 -0.025732297
-0.044359922 -0.0013251774 -0.005318097 -0.0037315204 0.036164403 0.009340641 -0.0031622553 -0.0031622606
-0.0056763208 -0.003565623 -0.11189912 -0.0034224666 -0.003162234 -0.053763922 -0.0059028286 0.00013443897
-0.0031622192 -0.0031622683 -0.0031622518 0.0559078 -0.003162259 -0.0048984764 -0.0031622376 -0.0031622062
00000000: af3d 4fbb 5102 0dbb 863c 4fbb ea3d 4fbb
00000010: bd45 f1ba 2df2 57bd 083e 4fbb 8acc d2bc
00000020: c0b2 35bd 93b1 adba 6e43 aebb 868c 74bb
00000030: 2021 143d 7d09 193c d73d 4fbb ee3d 4fbb
00000040: 6e00 babb 3aad 69bb 5e2b e5bd 764b 60bb
00000050: 7c3d 4fbb 8f37 5cbd 846c c1bb 30f8 0c39
00000060: 3c3d 4fbb 0f3e 4fbb c83d 4fbb 94ff 643d
00000070: e73d 4fbb 6683 a0bb 8b3d 4fbb 043d 4fbb

Predict/fc1/BiasAdd/ReadVariableOp/resource f4 [16]
-0.015346824 -0.072958395 0.32380325 -0.020465558 0.0019327884 -0.25960392 0.19983979 0.33536267
-0.23689333 0.19554688 0.3578347 -0.009288154 0.1328984 0.30922818 -0.3912116 -0.16667797
00000000: 3f71 7bbc 366b 95bd 8ac9 a53e 63a7 a7bc
00000010: 9e55 fd3a ceea 84be cda2 4c3e a8b4 ab3e
00000020: 2a94 72be 713d 483e 1c36 b73e 572d 18bc
00000030: 8516 083e 2853 9e3e e34c c8be a1ad 2abe

Predict/layer_conv1/BiasAdd/ReadVariableOp/resource f4 [20]
0.0025596246 -0.018165112 -0.011961761 -0.0008689077 -0.030515058 -0.030026602 -0.0015217212 0.0020023445
-0.0010322223 -0.003636159 -0.037190393 -0.03583881 -0.0042441436 -0.017820189 -0.0034893826 -0.0011011654
0.00034241544 0.00050976535 0.0008579478 -0.02396795
00000000: 60bf 273b 00cf 94bc 43fb 43bc 69c7 63ba
00000010: b7fa f9bc 59fa f5bc 7e74 c7ba c439 033b
00000020: a24b 87ba a04c 6ebb f454 18bd b7cb 12bd
00000030: 7512 8bbb a5fb 91bc 20ae 64bb fb54 90ba
00000040: 3986 b339 c6a1 053a e7e7 603a 6f58 c4bc

Predict/layer_conv3/BiasAdd/ReadVariableOp/resource f4 [40]
-0.015957784 -0.04038487 -0.08982933 -0.0500662 0.016312776 -0.060684092 -0.01158525 -0.004398429
-0.004058828 0.00070603687 -0.0037800628 -0.038792063 -0.04438887 0.05031749 -0.0013325006 -0.045320034
-0.05162647 -0.005135393 -0.012221661 -0.035924472 -0.039090782 0.0054524466 -0.0018724564 -0.0013336663
-0.01798604 -0.020406123 -0.012267479 -0.042575408 -0.02040601 -0.07650119 -0.024321852 -0.046915714
0.014108342 0.0015713742 -0.008894283 -0.00044682913 -0.0028997636 -0.069992125 -0.066142626 -0.06972374
00000000: e6b9 82bc 9b6a 25bd 71f8 b7bd 3712 4dbd
00000010: 5fa2 853c e28f 78bd 0fd0 3dbc b220 90bb
00000020: ebff 84bb 5515 393a eeba 77bb 6de4 1ebd
00000030: 1bd1 35bd b619 4e3d 4da7 aeba 80a1 39bd
00000040: 4776 53bd cc46 a8bb 5d3d 48bc 8a25 13bd
00000050: a81d 20bd 70aa b23b 366d f5ba 6ace aeba
00000060: 7657 93bc be2a a7bc 89fd 48bc 8d63 2ebd
00000070: 812a a7bc a8ac 9cbd 9f3e c7bc b12a 40bd
00000080: ad26 673c 92f6 cd3a 54b9 11bc 6444 eab9
00000090: f609 3ebb 0858 8fbd c975 87bd 52cb 8ebd

Predict/layer_conv5/BiasAdd/ReadVariableOp/resource f4 [80]
0.005229584 -0.10387097 -0.066212736 -0.051994093 -0.056648005 -0.036891695 -0.077091314 -0.0033702618
-0.023847593 -0.011892567 0.006042719 -0.07530576 0.0015737345 -0.014135002 -0.005894932 -0.069066904
-0.0049266727 -0.059919756 -0.0494016 0.0043594264 -0.020304084 -0.037239708 -0.04831506 -0.022015449
-0.0077486336 -0.017868988 -0.084719114 -0.076614395 -0.019890087 -0.0710591 -0.112363435 -0.0063655237
-0.015602703 -0.013515409 -0.08205988 -0.09287157 0.0065824566 -0.051539466 0.0066439337 -0.08371467
-0.062210653 -0.06972635 -0.073032334 -0.05018761 -0.014833016 -0.08088091 -0.015611876 -0.124032274
-0.008437451 0.009739667 -0.017602328 -0.009753269 -0.016154526 -0.04467194 -0.049873 -0.046390653
0.014449378 -0.072522976 -0.018865334 -0.06443372 -0.0060569914 -0.04430219 -0.053395662 -0.015681123
-0.060152687 -0.07540445 0.035064843 0.018958066 -0.05515314 -0.056859944 -0.046102725 -0.0055236584
-0.021600608 -0.032541864 -0.08322165 -0.011402711 -0.0137994485 0.038744155 -0.12673408 -0.045460586
00000000: ee5c ab3b 4eba d4bd 8b9a 87bd c2f7 54bd
00000010: bd07 68bd bf1b 17bd 0de2 9dbd 9cdf 5cbb
00000020: 075c c3bc 0bd9 42bc 0002 c63b e839 9abd
00000030: c445 ce3a 7f96 67bc 462a c1bb f372 8dbd
00000040: ed6f a1bb 6b6e 75bd 5559 4abd 85d9 8e3b
00000050: c054 a6bc aa88 18bd 03e6 45bd be59 b4bc
00000060: 40e8 fdbb fc61 92bc 3781 adbd 02e8 9cbd
00000070: 89f0 a2bc 6f87 91bd cd1e e6bd e295 d0bb
00000080: 7ba2 7fbc bc6f 5dbc 030f a8bd 7333 bebd
00000090: a6b1 d73b 0c1b 53bd 5bb5 d93b 9972 abbd
000000a0: 99d0 7ebd b0cc 8ebd fa91 95bd 8691 4dbd
000000b0: 2e06 73bc e4a4 a5bd f4c8 7fbc a204 febd
000000c0: 3c3d 0abc 2093 1f3c c232 90bc 2dcc 1fbc
000000d0: 7f56 84bc edf9 36bd a147 4cbd 2004 3ebd
000000e0: 15bd 6c3c ed86 94bd 798b 9abc d4f5 83bd
000000f0: ba79 c6bb 3776 35bd 69b5 5abd b375 80bc
00000100: aa62 76bd a66d 9abd 27a0 0f3d f24d 9b3c
00000110: 42e8 61bd f9e5 68bd 36d6 3cbd ceff b4bb
00000120: c2f3 b0bc 9e4a 05bd 1d70 aabd 70d2 3abc
00000130: 1517 62bc 31b2 1e3d 94c6 01be e134 3abd

Predict/op/BiasAdd/ReadVariableOp/resource f4 [4]
0.5890909 -0.483665 -0.5647171 0.024688719
00000000: a9ce 163f f0a2 f7be 4d91 10bf ff3f ca3c

Predict/fc0/MatMul i1 [32, 24640] scale=0.003144437 zero_point=0
-0.012577748 -0.015722185 0.003144437 0.0094333105 0.012577748 -0.006288874 -0.003144437 -0.006288874
0.012577748 0.012577748 0.0094333105 0.006288874 -0.006288874 0.003144437 -0.006288874 0.003144437
-0.012577748 0.003144437 0.012577748 -0.003144437 0.0094333105 0.006288874 0.006288874 0.0
-0.015722185 -0.003144437 0.0 0.0094333105 -0.0094333105 0.003144437 -0.003144437 -0.006288874
0.003144437 0.006288874 0.003144437 0.006288874 -0.003144437 0.0094333105 -0.012577748 -0.018866621
-0.018866621 0.003144437 -0.006288874 -0.006288874 0.015722185 0.006288874 -0.015722185 0.0
0.003144437 0.006288874 -0.003144437 0.0 0.006288874 0.003144437 -0.012577748 -0.003144437
0.0 0.0 -0.012577748 -0.006288874 0.015722185 0.006288874 -0.012577748 0.015722185
-0.003144437 -0.012577748 -0.015722185 0.012577748 0.0 -0.003144437 -0.012577748 0.0
-0.015722185 0.006288874 -0.0094333105 0.006288874 -0.012577748 0.0 -0.0094333105 -0.006288874
-0.018866621 -0.0094333105 -0.012577748 -0.0094333105 0.006288874 0.0094333105 -0.003144437 -0.006288874
-0.006288874 0.012577748 -0.003144437 -0.0094333105 -0.003144437 -0.003144437 0.003144437 -0.0094333105
-0.015722185 0.012577748 0.0 0.003144437 -0.012577748 -0.003144437 -0.012577748 -0.006288874
-0.012577748 0.006288874 -0.015722185 0.003144437 -0.003144437 0.0094333105 0.006288874 0.003144437
-0.006288874 -0.003144437 -0.012577748 -0.003144437 0.0094333105 -0.015722185 0.006288874 0.0094333105
-0.012577748 -0.0094333105 0.006288874 0.0 0.006288874 -0.003144437 0.003144437 0.006288874
0.0 0.003144437 -0.018866621 -0.0094333105 -0.006288874 0.003144437 -0.012577748 0.0
-0.006288874 -0.0094333105 -0.015722185 -0.015722185 -0.006288874 0.012577748 0.0094333105 0.0094333105
-0.015722185 -0.006288874 -0.003144437 0.003144437 0.006288874 -0.012577748 0.012577748 0.003144437
-0.006288874 0.003144437 -0.015722185 0.003144437 -0.012577748 -0.006288874 0.0094333105 -0.0094333105
0.006288874 -0.003144437 -0.012577748 0.0094333105 -0.018866621 -0.015722185 0.0 0.003144437
0.0 -0.006288874 0.0 -0.012577748 0.0 0.012577748 -0.015722185 0.012577748
0.0094333105 -0.015722185 0.003144437 -0.0094333105 -0.0094333105 -0.015722185 0.006288874 -0.015722185
-0.006288874 0.0094333105 0.003144437 -0.018866621 -0.006288874 -0.003144437 -0.018866621 -0.0094333105
0.0094333105 -0.0094333105 -0.015722185 -0.003144437 -0.003144437 -0.012577748 -0.006288874 0.003144437
-0.003144437 0.012577748 -0.015722185 -0.0094333105 0.006288874 -0.003144437 0.006288874 -0.0094333105
0.0094333105 0.003144437 -0.006288874 0.003144437 -0.003144437 0.0 0.003144437 -0.003144437
0.0 0.006288874 -0.006288874 0.012577748 -0.0094333105 -0.018866621 0.0094333105 -0.015722185
0.0094333105 -0.006288874 -0.0094333105 -0.006288874 -0.012577748 0.003144437 0.0094333105 0.003144437
0.003144437 0.003144437 0.012577748 -0.006288874 0.006288874 0.003144437 -0.006288874 0.0
0.006288874 0.003144437 0.0 0.006288874 0.006288874 0.003144437 -0.003144437 -0.0094333105
-0.0094333105 -0.003144437 0.006288874 0.0094333105 -0.006288874 -0.006288874 -0.006288874 0.006288874
00000000: fcfb 0103 04fe fffe 0404 0302 fe01 fe01
00000010: fc01 04ff 0302 0200 fbff 0003 fd01 fffe
00000020: 0102 0102 ff03 fcfa fa01 fefe 0502 fb00
00000030: 0102 ff00 0201 fcff 0000 fcfe 0502 fc05
00000040: fffc fb04 00ff fc00 fb02 fd02 fc00 fdfe
00000050: fafd fcfd 0203 fffe fe04 fffd ffff 01fd
00000060: fb04 0001 fcff fcfe fc02 fb01 ff03 0201
00000070: feff fcff 03fb 0203 fcfd 0200 02ff 0102
00000080: 0001 fafd fe01 fc00 fefd fbfb fe04 0303
00000090: fbfe ff01 02fc 0401 fe01 fb01 fcfe 03fd
000000a0: 02ff fc03 fafb 0001 00fe 00fc 0004 fb04
000000b0: 03fb 01fd fdfb 02fb fe03 01fa feff fafd
000000c0: 03fd fbff fffc fe01 ff04 fbfd 02ff 02fd
000000d0: 0301 fe01 ff00 01ff 0002 fe04 fdfa 03fb
000000e0: 03fe fdfe fc01 0301 0101 04fe 0201 fe00
000000f0: 0201 0002 0201 fffd fdff 0203 fefe fe02

Predict/fc1/MatMul f4 [16, 32]
-0.07158312 0.14579207 -0.27024046 -0.13676897 -0.28662866 -0.32553646 -0.22036946 -0.1644014
-0.048250735 0.1417293 -0.021718282 0.07937521 -0.25175643 -0.08929974 -0.3358365 0.09824837
-0.35329586 0.14479506 -0.32163566 -0.3135219 0.31791165 0.00072168256 -0.21412866 -0.007857442
0.16931191 -0.055117425 0.104272574 -0.07056583 0.2843652 0.083900146 -0.17148179 -0.25365674
0.29118076 -0.12817326 0.17843923 0.22416154 -0.27701312 0.46652576 0.23380151 -0.2083019
-0.22609574 0.08134934 -0.2954132 0.11169354 0.17244844 0.3487802 -0.35448396 0.26499915
0.3311131 -0.04676681 0.42268804 0.18233635 0.061548177 -0.2585691 -0.35056883 -0.19838263
-0.3031981 -0.21086371 -0.3215731 -0.031481065 -0.19371751 0.018366698 -0.2741615 -0.04339451
0.009178907 0.0715622 -0.26999247 -0.12991329 0.08445772 0.42938912 -0.26931378 0.5506241
-0.18460774 0.33341998 0.23026907 0.090219475 -0.45042267 -0.4456311 0.13518569 -0.07281771
-0.22532019 0.10757209 0.13043751 -0.016419472 -0.060281347 -0.11073483 0.30237857 -0.09551213
-0.2515479 0.020498639 -0.05415812 0.80387026 -0.15280607 0.009197673 0.18090472 -0.20713107
-0.22364321 -0.0914283 -0.32198703 0.23474711 -0.1336899 -0.19574752 0.2766489 -0.14002632
0.60091144 -0.09439937 0.3074895 0.28564647 -0.016457068 0.3433439 0.017310053 0.18871629
0.30385643 0.12083035 0.24087685 0.06547799 -0.16527197 0.63387865 0.19618356 0.037482
0.0128258765 0.13275418 -0.1935806 -0.05452469 0.15745948 -0.21332753 0.2695274 -0.22101487
-0.22330056 0.24245799 -0.23683092 -0.084965944 -0.3533333 0.09243543 -0.08933279 0.30570543
-0.28336158 -0.059538938 -0.30130562 0.08263905 -0.13297781 0.12926593 -0.3257831 0.27611446
-0.26180077 -0.15043858 0.40098903 0.13480179 0.008273122 -0.08671106 0.05239837 0.28048858
0.13601065 0.32979128 0.2817445 -0.037268177 0.22714481 -0.30987 -0.30686328 -0.018854719
0.19661985 -0.23070352 0.2378371 0.10258761 -0.3228859 -0.03361134 0.31763527 0.22661224
-0.10857469 0.16340834 0.011721037 -0.23432665 0.0084941 0.29343805 0.24643809 0.30033943
-0.2937957 0.19261566 0.4612046 0.24900475 0.16782229 -0.09120548 -0.27844217 0.31687587
0.24529332 0.3198273 0.039122462 -0.058635257 -0.08850052 0.06593826 0.20030189 -0.17855422
0.22009636 -0.27262276 -0.034864604 -0.04993102 -0.19713762 -0.099863715 0.19772944 -0.09643076
0.3141662 0.29342875 0.033589724 0.019152543 -0.09392841 -0.34127182 -0.25617155 0.16709042
-0.064983845 0.27329093 -0.35910678 -0.12437935 0.34112194 0.28307274 -0.19310284 0.025114737
-0.27785158 -0.084286414 -0.20597011 0.57387257 -0.0036500904 -0.12607299 0.074702494 0.18974446
0.15628977 0.15980606 0.3203294 0.12005894 0.24295965 -0.07268994 -0.28915572 -0.035887267
0.47042507 -0.07878109 0.12273031 0.19710211 0.66410416 0.5771386 0.32399997 -0.31577036
-0.34678623 0.22011639 -0.1707668 -0.19042306 0.2746558 0.09041137 0.24133609 0.34899285
-0.026570797 -0.32774547 -0.13719186 -0.13072644 -0.15881155 0.036354624 0.19899383 -0.16640504
00000000: 2c9a 92bd 844a 153e f55c 8abe 2a0d 0cbe
00000010: fec0 92be b7ac a6be 88a8 61be d758 28be
00000020: 90a2 45bd 7c21 113e 8aea b1bc 788f a23d
00000030: 38e6 80be c8e2 b6bd c3f2 abbe 7136 c93d
00000040: 32e3 b4be 2845 143e 6ead a4be f185 a0be
00000050: 51c5 a23e 4c2f 3d3a 8b44 5bbe 80bc 00bc
00000060: 1a60 2d3e cfc2 61bd dc8c d53d d184 90bd
00000070: 5198 913e d7d3 ab3d ec98 2fbe 4cdf 81be
00000080: a515 953e da3f 03be c6b8 363e 9a8a 653e
00000090: aad4 8dbe 77dc ee3e aa69 6f3e 184d 55be
000000a0: a485 67be 7c9a a63d 6640 97be 95bf e43d
000000b0: 5396 303e 5293 b23e ec7e b5be f8ad 873e
000000c0: a887 a93e 8e8e 3fbd 916a d83e 61b6 3a3e
000000d0: f119 7c3d 2b63 84be c27d b3be d124 4bbe
000000e0: c83c 9bbe a8ec 57be 3ba5 a4be 4af2 00bd
000000f0: e25d 46be c275 963c e55e 8cbe 71be 31bd
00000100: 2063 163c 348f 923d 743c 8abe fd07 05be
00000110: 2bf8 ac3d e4d8 db3e 7fe3 89be b3f5 0c3f
00000120: d009 3dbe 06b6 aa3e a8cb 6b3e fdc4 b83d
00000130: cd9d e6be c229 e4be 1e6e 0a3e 7421 95bd
00000140: 56ba 66be c24e dc3d 6991 053e 2182 86bc
00000150: 93e9 76bd f1c8 e2bd 5dd1 9a3e dd9b c3bd
00000160: e3ca 80be c3ec a73c e8d4 5dbd 71ca 4d3f
00000170: 3279 1cbe d6b1 163c 163f 393e 2b1a 54be
00000180: ba02 65be c33e bbbd 7cdb a4be 8c61 703e
00000190: 01e6 08be 0a72 48be eda4 8d3e 0f63 0fbe
000001a0: 55d5 193f 7554 c1bd 446f 9d3e 4140 923e
000001b0: f9d0 86bc c6ca af3e d0cd 8d3c d83e 413e
000001c0: 1293 9b3e e775 f73d 6ca8 763e 5319 863d
000001d0: 0e3d 29be df45 223f 58e4 483e ba86 193d
000001e0: a023 523c b6f0 073e fe39 46be 4855 5fbd
000001f0: 0f3d 213e 8872 5abe 7fff 893e b951 62be
00000200: e7a8 64be e846 783e ce83 72be a002 aebd
00000210: 1ae8 b4be c94e bd3d 1cf4 b6bd 6c85 9c3e
00000220: c514 91be 1adf 73bd bb44 9abe aa3e a93d
00000230: 562b 08be 4a5e 043e 0bcd a6be e05e 8d3e
00000240: c00a 86be 920c 1abe 6f4e cd3e 7b09 0a3e
00000250: fd8b 073c 9195 b1bd ac9f 563d 339c 8f3e
00000260: 6046 0b3e 67da a83e d140 903e 84a6 18bd
00000270: a698 683e 48a7 9ebe 2f1d 9dbe 3675 9abc
00000280: b756 493e 8b3d 6cbe 928b 733e 7419 d23d
00000290: 4d51 a5be 0bac 09bd 17a1 a23e 0a0d 683e
000002a0: 685c debd 8454 273e 9809 403c 53f3 6fbe
000002b0: d62a 0b3c 833d 963e 445a 7c3e 17c6 993e
000002c0: 646c 96be 0a3d 453e 0223 ec3e 1afb 7e3e
000002d0: 9bd9 2b3e f0c9 babd f98f 8ebe 8e3d a23e
000002e0: 2c2e 7b3e 67c0 a33e e03e 203d 862b 70bd
000002f0: c33f b5bd a30a 873d f01b 4d3e ebd6 36be
00000300: f160 613e 3695 8bbe 30ce 0ebd 7884 4cbd
00000310: 72de 49be 5985 ccbd 9679 4a3e 7e7d c5bd
00000320: 64da a03e 4b3c 963e 6195 093d cbe5 9c3c
00000330: 8a5d c0bd 2ebb aebe eb28 83be c019 2b3e
00000340: 4016 85bd caec 8b3e d8dc b7be 9aba febd
00000350: 89a7 ae3e e9ee 903e c0bc 45be 6cbd cd3c
00000360: 9042 8ebe 5b9e acbd d4e9 52be 50e9 123f
00000370: 5b36 6fbb 4719 01be 9ffd 983d 5f4c 423e
00000380: 6d0a 203e 33a4 233e 3702 a43e 76e1 f53d
00000390: 6aca 783e 77de 94bd 380c 94be 87fe 12bd
000003a0: 8edb f03e fb57 a1bd 075a fb3d 23d5 493e
000003b0: bb02 2a3f 5bbf 133f 53e3 a53e a7ac a1be
000003c0: f78d b1be 3166 613e 7edd 2ebe 43fe 42be
000003d0: af9f 8c3e 9929 b93d cf20 773e 31af b23e
000003e0: 00ab d9bc 41ce a7be 067c 0cbe 27dd 05be
000003f0: 7f9f 22be 96e8 143d 0ac5 4b3e 1566 2abe

Predict/op/MatMul f4 [4, 16]
0.14723574 -0.61505014 0.40149575 -1.2963187 -0.10919459 -0.32552004 0.23694141 -0.3025284
-0.66555387 -0.58882886 0.6016844 0.5948377 -0.816298 0.1286692 -0.4166356 -1.0156269
0.25754955 0.4976229 0.43250972 -0.4896354 0.23152617 0.32579184 -0.8996767 -0.9320846
-0.1378073 -1.1402526 -0.28062814 -0.94259614 -1.2502673 0.082739905 0.40431747 0.3030142
-0.21922864 -1.3888838 -0.9928312 0.36491022 -1.977478 -1.6094983 -0.09981875 0.040240154
-0.79552263 0.045592654 -0.64388293 0.42923987 0.39446 -0.6688228 0.42237768 0.3832458
0.11617561 0.16837224 -0.26636848 -0.20795986 -0.6431133 -0.30527723 -0.7249534 0.20310219
-0.034497 0.29219738 0.41330612 -0.60874957 0.23066252 -1.0702157 -0.8045528 -0.5568208
00000000: f7c4 163e ed73 1dbf da90 cd3e c5ed a5bf
00000010: 6aa1 dfbd 90aa a6be c5a0 723e 01e5 9abe
00000020: bd61 2abf 7dbd 16bf fd07 1a3f 4947 183f
00000030: e8f8 50bf dcc1 033e 4351 d5be 1000 82bf
00000040: 89dd 833e 6ec8 fe3e ea71 dd3e 7eb1 fabe
00000050: 3215 6d3e 30ce a63e 3651 66bf 199d 6ebf
00000060: 5b1d 0dbe ccf3 91bf 7eae 8fbe fb4d 71bf
00000070: c208 a0bf 8a73 a93d b302 cf3e ad24 9b3e
00000080: 797d 60be f2c6 b1bf 2f2a 7ebf 83d5 ba3e
00000090: 001e fdbf 0a04 cebf c66d ccbd dcd2 243d
000000a0: 5fa7 4bbf 5dbf 3a3d 83d5 24bf 54c5 db3e
000000b0: a9f6 c93e f937 2bbf e341 d83e cb38 c43e
000000c0: 7aed ed3d c669 2c3e 7361 88be 6ef3 54be
000000d0: 13a3 24bf 4c4d 9cbe 8c96 39bf 05fa 4f3e
000000e0: ba4c 0dbd e59a 953e dc9c d33e 03d7 1bbf
000000f0: cc32 6c3e d4fc 88bf 2cf7 4dbf cf8b 0ebf

Predict/layer_conv1/Conv2D f4 [20, 4, 4, 1]
-0.10744552 -0.16340728 -0.06662218 0.19547616 -0.30092183 0.0413284 0.25845447 -0.21981339
-0.21854128 0.204928 0.12207687 -0.09194054 0.2201165 0.10664226 -0.15527068 -0.20778085
0.17736176 -0.14780734 0.07495664 -0.068739094 -0.1356156 -0.018410197 -0.16363701 -0.013309792
0.1865484 -0.23352922 -0.115412034 -0.04840176 -0.025888942 0.21520011 -0.017483223 -0.2039529
-0.109537475 0.15755053 0.021713039 -0.3384676 -0.007585946 0.0866998 0.032733496 -0.026264274
-0.06355876 -0.053997163 0.05485151 -0.11086228 -0.05721415 0.13881446 -0.2967147 0.07907403
-0.096433595 -0.15779395 0.030501375 0.13543819 0.13723035 -0.15256217 0.22898412 -0.021632235
0.15914045 0.20274177 0.077792384 -0.14786394 0.00845583 -0.28137675 -0.0033763305 0.068911254
0.09944238 -0.1043943 0.18557061 -0.011855816 0.14948145 -0.048695695 0.20853761 0.2037699
0.0010667851 -0.089484625 0.093736015 0.18141606 0.20983368 -0.059963126 0.16633825 -0.058610063
-0.14011282 -0.1392625 -0.010924709 0.06454456 0.02476001 -0.09098012 -0.057517298 0.07745568
0.086576864 0.29355264 0.008635235 -0.23799823 0.0661794 0.10647713 -0.21120435 -0.19714868
0.17450394 0.23763846 -0.24293552 0.02532316 -0.00041200028 0.13877039 0.035354905 0.012527412
0.16806132 0.066658325 -0.24629062 0.03256931 -0.2740749 0.0054044924 0.24057268 0.053740207
0.019028507 0.024567777 0.14059667 0.09012492 0.061357297 -0.1674492 -0.07124207 0.22184838
-0.12358452 0.14482866 0.15902708 -0.3043747 -0.13149786 -0.0019810044 -0.026793836 -0.27801996
0.10654072 0.13804911 0.122868635 -0.2902011 1.6903796e-06 0.2488247 0.1177739 -0.08400195
-0.016530937 -0.22861029 0.06956823 0.1783679 -0.027560005 0.056077592 0.20458438 -0.19822946
-0.15562975 0.22330421 0.22693451 -0.24356057 -0.07048386 -0.01561263 0.3098251 0.2879743
0.20694207 0.18346791 -0.22111498 -0.25357732 0.02106578 0.22244078 -0.005415046 0.11824025
0.10794651 -0.18846282 0.0043672156 0.012003571 0.1278462 -0.083844036 -0.12046882 0.2082179
-0.18698986 -0.056500986 0.26979658 0.053697582 -0.117819615 0.20589982 0.248886 0.012699226
0.16431104 -0.010557201 0.056646407 0.15498336 -0.24536313 0.042001262 -0.18729283 0.14789002
-0.051720962 -0.12427979 0.16213334 0.037932094 0.007111271 0.055245366 -0.061153498 0.35682526
0.19471686 -0.3324154 -0.123441644 0.24486712 -0.14889744 0.1244629 0.31673038 -0.138226
-0.11774392 -0.19161534 0.013429208 0.15746233 -0.05178555 0.18045956 0.2639313 -0.2245042
0.0145364925 0.03716204 0.07139324 -0.3674612 0.03299607 0.16178495 0.14097045 -0.20065887
-0.05018992 -0.049320154 0.026348671 -0.19853613 -0.024775825 -0.003761893 0.083164625 -0.1766015
-0.24013107 0.20468356 0.04202592 -0.00644974 -0.020485448 -0.16369471 0.15049769 0.14548624
-0.06485548 0.2217962 0.3598584 -0.3235401 0.020536229 0.15298939 -0.07865607 -0.052730083
0.066659585 -0.20439975 -0.28633577 -0.038745403 0.16001387 0.1932395 0.2050653 -0.30542102
0.17839941 -0.100782566 -0.17026405 0.10739493 0.041020967 0.2297958 0.1514963 -0.2874244
00000000: 660c dcbd 3d54 27be 3671 88bd e72a 483e
00000010: 6d12 9abe f847 293d 2554 843e c316 61be
00000020: 49c9 5fbe a5d8 513e 7003 fa3d 524b bcbd
00000030: 3866 613e 4267 da3d 47ff 1ebe 81c4 54be
00000040: 529e 353e cf5a 17be de82 993d 15c7 8cbd
00000050: d1de 0abe fbd0 96bc 7690 27be 5011 5abc
00000060: 8b06 3f3e 4922 6fbe 255d ecbd ed40 46bd
00000070: 0c15 d4bc 6b5d 5c3e fa38 8fbc 07d9 50be
00000080: 2f55 e0bd ed54 213e 8bdf b13c a04b adbe
00000090: 8793 f8bb aa8f b13d 8f13 063d 2d28 d7bc
000000a0: 182b 82bd 212c 5dbd faab 603d c30b e3bd
000000b0: 6259 6abd 6125 0e3e fdea 97be 91f1 a13d
000000c0: fa7e c5bd bd94 21be 05de f93c 4fb0 0a3e
000000d0: 1d86 0c3e 4239 1cbe d07a 6a3e 1636 b1bc
000000e0: b7f5 223e 8a9b 4f3e 9d51 9f3d a569 17be
000000f0: 528a 0a3c 9d10 90be 6d45 5dbb 5821 8d3d
00000100: 72a8 cb3d aecc d5bd 3906 3e3e e53e 42bc
00000110: aa11 193e 2375 47bd e28a 553e 0fa9 503e
00000120: 5ed3 8b3a b743 b7bd abf8 bf3d 22c5 393e
00000130: a4de 563e e59b 75bd 9354 2a3e 1b11 70bd
00000140: bc79 0fbe d49a 0ebe 8dfd 32bc f02f 843d
00000150: 81d5 ca3c c953 babd 4297 6bbd 15a1 9e3d
00000160: 364f b13d 884c 963e cd7a 0d3c cfb5 73be
00000170: 1189 873d ae10 da3d f445 58be 58e1 49be
00000180: 29b1 323e 7f57 733e 17c4 78be 8472 cf3c
00000190: be01 d8b9 d319 0e3e 4ed0 103d c63f 4d3c
000001a0: 4418 2c3e 2984 883d 9c33 7cbe 6667 053d
000001b0: 8c53 8cbe 2b18 b13b af58 763e b11e 5c3d
000001c0: ace1 9b3c 5d42 c93c 93f8 0f3e 6a93 b83d
000001d0: ca51 7b3d ce77 2bbe 5de7 91bd 392c 633e
000001e0: e119 fdbd f74d 143e ffd7 223e 00d7 9bbe
000001f0: 60a7 06be bdd3 01bb bf7e dbbc a258 8ebe
00000200: 0532 da3d bf5c 0d3e 8da2 fb3d 3d95 94be
00000210: 00e1 e235 e7cb 7e3e 7133 f13d 3709 acbd
00000220: e36b 87bc d118 6abe ca79 8e3d 13a6 363e
00000230: 85c5 e1bc 9eb1 653d 917e 513e aafc 4abe
00000240: 685d 1fbe dca9 643e 8561 683e f167 79be
00000250: d859 90bd 1ecc 7fbc 65a1 9e3e 5e71 933e
00000260: 9fe8 533e 03df 3b3e f76b 62be e3d4 81be
00000270: 2592 ac3c 84c7 633e b370 b1bb f227 f23d
00000280: 0f13 dd3d 66fc 40be dc1a 8f3b a0aa 443c
00000290: 1dea 023e 6cb6 abbd 5bb8 f6bd 1337 553e
000002a0: 457a 3fbe 946d 67bd c722 8a3e fff1 5b3d
000002b0: 694b f1bd 67d7 523e f9db 7e3e 6a10 503c
000002c0: 2741 283e 1cf8 2cbc 1006 683d f5b3 1e3e
000002d0: 7940 7bbe 8409 2c3d b1c9 3fbe 7b70 173e
000002e0: 5cd9 53bd 6786 febd 4806 263e af5e 1b3d
000002f0: aa05 e93b f748 623d 177c 7abd cdb1 b63e
00000300: db63 473e 5a32 aabe f9ce fcbd 72be 7a3e
00000310: 9278 18be 68e6 fe3d 7c2a a23e 1e8b 0dbe
00000320: b923 f1bd d036 44be 2e06 5c3c ce3d 213e
00000330: 161d 54bd 64ca 383e 0122 873e 6ee4 65be
00000340: 782a 6e3c 3937 183d 9e36 923d e023 bcbe
00000350: e326 073d f4aa 253e 8f5a 103e 8579 4dbe
00000360: f293 4dbd ee03 4abd 2bd9 d73c 0e4d 4bbe
00000370: acf6 cabc 178a 76bb 3752 aa3d 06d7 34be
00000380: ebe4 75be 9198 513e 5f23 2c3d 5758 d3bb
00000390: 19d1 a7bc 969f 27be 111c 1a3e 58fa 143e
000003a0: f3d2 84bd 8b1e 633e 5c3f b83e 0ca7 a5be
000003b0: 983b a83c 40a9 1c3e 6f16 a1bd 80fb 57bd
000003c0: d284 883d 2b4e 51be 9a9a 92be 80b3 1ebd
000003d0: adda 233e 93e0 453e a3fc 513e 2560 9cbe
000003e0: 56ae 363e 1767 cebd b359 2ebe e0f1 db3d
000003f0: 9a05 283d 974f 6b3e d921 1b3e 4a29 93be

Predict/layer_conv3/Conv2D i1 [40, 3, 3, 20] scale=0.004863024 zero_point=0
-0.08267141 -0.019452097 0.03404117 0.14589073 0.16534282 0.053493265 0.06321932 -0.15561678
0.19938399 -0.014589073 0.004863024 0.24801424 -0.10212351 0.053493265 0.116712585 0.13130166
0.014589073 0.07780839 0.053493265 0.087534435 -0.043767218 0.13130166 0.1604798 0.009726048
0.1799319 0.019452097 -0.087534435 0.13130166 0.08267141 0.09239746 -0.07780839 -0.18479492
-0.12157561 0.19452097 0.22369911 0.038904194 0.07780839 0.12157561 -0.053493265 0.03404117
0.27232936 0.06808234 -0.17020585 0.40849403 0.111849554 -0.10212351 0.087534435 -0.053493265
-0.072945364 -0.08267141 0.06321932 0.04863024 0.17020585 -0.038904194 -0.072945364 -0.116712585
0.24315122 0.03404117 0.37931588 0.13130166 -0.043767218 0.004863024 -0.019452097 0.08267141
-0.009726048 0.0 -0.029178146 -0.18965794 -0.13130166 0.18965794 -0.004863024 0.17506887
0.004863024 -0.087534435 -0.009726048 -0.111849554 -0.072945364 -0.004863024 0.009726048 0.058356293
0.10212351 -0.15561678 0.14589073 0.03404117 0.23342517 0.072945364 0.009726048 0.13616468
0.10212351 0.15075375 0.1799319 -0.029178146 0.07780839 -0.10698653 0.24801424 0.33554867
0.014589073 0.15075375 0.18965794 0.03404117 0.13130166 0.09726048 -0.1604798 -0.043767218
0.17020585 0.058356293 0.072945364 0.29178146 0.33068565 0.24315122 0.2626033 0.053493265
0.2577403 0.111849554 0.15075375 0.19452097 0.40849403 0.13130166 -0.09239746 0.2577403
-0.32582262 0.043767218 -0.009726048 0.053493265 0.03404117 0.06321932 -0.06808234 -0.08267141
-0.06808234 0.04863024 0.0 0.22856213 -0.1799319 -0.15075375 -0.09726048 -0.072945364
-0.12643863 -0.07780839 -0.20424701 0.019452097 -0.043767218 0.03404117 0.053493265 -0.09239746
0.17506887 0.009726048 -0.22369911 -0.35013774 0.23342517 0.08267141 -0.19938399 -0.04863024
-0.043767218 0.029178146 -0.13616468 0.10212351 -0.014589073 -0.116712585 0.08267141 0.13616468
0.08267141 -0.029178146 0.15561678 -0.116712585 -0.09726048 0.053493265 0.004863024 0.15075375
-0.34527472 -0.02431512 0.32582262 -0.09726048 0.35500076 0.06808234 0.053493265 0.1799319
-0.087534435 0.17506887 0.0 0.10698653 0.06808234 0.009726048 0.09239746 0.02431512
-0.03404117 -0.029178146 -0.15561678 0.029178146 0.13616468 -0.043767218 -0.1410277 0.21397306
0.014589073 0.038904194 0.1410277 -0.019452097 -0.09239746 -0.009726048 0.06808234 0.038904194
-0.15561678 0.08267141 0.08267141 0.116712585 0.02431512 0.25287727 0.06808234 0.019452097
0.15561678 0.12157561 0.15075375 0.0 -0.06808234 -0.058356293 0.14589073 0.04863024
0.053493265 -0.03404117 0.06808234 -0.009726048 0.15075375 -0.13130166 -0.02431512 0.053493265
0.09726048 0.019452097 -0.09239746 0.22369911 -0.10212351 0.029178146 0.17020585 0.07780839
0.019452097 -0.06808234 0.18479492 0.038904194 -0.058356293 0.14589073 -0.27232936 0.26746634
0.0 0.111849554 -0.07780839 -0.12643863 0.07780839 -0.053493265 0.03404117 0.043767218
0.12157561 0.004863024 -0.053493265 -0.06321932 0.043767218 -0.07780839 0.058356293 -0.014589073
00000000: effc 071e 220b 0de0 29fd 0133 eb0b 181b
00000010: 0310 0b12 f71b 2102 2504 ee1b 1113 f0da
00000020: e728 2e08 1019 f507 380e dd54 17eb 12f5
00000030: f1ef 0d0a 23f8 f1e8 3207 4e1b f701 fc11
00000040: fe00 fad9 e527 ff24 01ee fee9 f1ff 020c
00000050: 15e0 1e07 300f 021c 151f 25fa 10ea 3345
00000060: 031f 2707 1b14 dff7 230c 0f3c 4432 360b
00000070: 3517 1f28 541b ed35 bd09 fe0b 070d f2ef
00000080: f20a 002f dbe1 ecf1 e6f0 d604 f707 0bed
00000090: 2402 d2b8 3011 d7f6 f706 e415 fde8 111c
000000a0: 11fa 20e8 ec0b 011f b9fb 43ec 490e 0b25
000000b0: ee24 0016 0e02 1305 f9fa e006 1cf7 e32c
000000c0: 0308 1dfc edfe 0e08 e011 1118 0534 0e04
000000d0: 2019 1f00 f2f4 1e0a 0bf9 0efe 1fe5 fb0b
000000e0: 1404 ed2e eb06 2310 04f2 2608 f41e c837
000000f0: 0017 f0e6 10f5 0709 1901 f5f3 09f0 0cfd

Predict/layer_conv5/Conv2D i1 [80, 2, 2, 40] scale=0.0053951936 zero_point=0
-0.032371163 0.12408945 0.0 -0.037766356 0.0053951936 -0.11869426 -0.113299064 -0.23738852
0.12948465 -0.0053951936 -0.167251 0.05934713 -0.026975967 -0.04316155 -0.12408945 0.010790387
-0.05934713 -0.167251 -0.19422697 -0.17804138 0.14027503 -0.19422697 -0.18343659 -0.04855674
-0.0809279 0.07553271 0.07553271 -0.05934713 0.04855674 -0.053951934 -0.11869426 0.10250868
-0.032371163 -0.09711348 0.19962217 -0.026975967 -0.06474233 -0.09711348 -0.04316155 0.10790387
0.39384913 0.21041255 0.22120294 0.19962217 -0.010790387 0.46938184 0.2589693 0.2481789
0.23738852 0.06474233 0.37766355 0.22120294 0.23199332 -0.07553271 0.2589693 0.21580774
0.13487984 0.12408945 0.3237116 0.3506876 0.39924434 -0.18883178 -0.026975967 0.22659813
0.14567022 0.28594527 0.44240588 0.23199332 0.39924434 0.26436448 0.2535741 0.20501736
-0.113299064 0.14027503 0.0863231 0.19962217 0.10250868 0.37226835 0.19422697 0.20501736
-0.15646061 0.026975967 0.010790387 -0.070137516 0.0863231 0.070137516 -0.23738852 -0.06474233
-0.07553271 -0.13487984 -0.17804138 0.113299064 -0.04855674 0.053951934 0.026975967 -0.04855674
0.091718294 -0.032371163 -0.11869426 -0.11869426 0.13487984 -0.167251 -0.37766355 -0.037766356
-0.04316155 -0.032371163 -0.016185582 -0.070137516 -0.037766356 0.05934713 -0.11869426 0.12408945
0.0809279 -0.032371163 0.38305876 -0.15106542 -0.14027503 0.09711348 -0.070137516 0.0
0.24278371 0.26436448 0.29134044 0.31831643 -0.053951934 0.28594527 0.12948465 0.21041255
0.29673564 0.026975967 0.38305876 0.21580774 0.24278371 0.04855674 0.14567022 0.39924434
0.26436448 0.04855674 0.22120294 0.28055006 0.29673564 -0.18883178 0.26975968 0.07553271
0.3452924 0.29673564 0.28055006 0.38305876 0.27515486 0.2589693 0.3398972 0.27515486
-0.14027503 0.21041255 -0.09711348 0.07553271 0.07553271 0.26436448 0.11869426 0.2535741
-0.053951934 0.091718294 0.05934713 0.0863231 -0.12408945 -0.04316155 -0.021580774 0.070137516
-0.0863231 -0.10790387 -0.053951934 -0.0863231 -0.07553271 -0.091718294 -0.10250868 -0.0809279
-0.032371163 -0.19422697 -0.1618558 -0.14027503 0.09711348 -0.091718294 -0.10790387 -0.037766356
-0.032371163 0.0 0.070137516 0.10250868 0.0809279 0.113299064 0.0053951936 0.016185582
-0.24278371 -0.05934713 0.12948465 -0.053951934 0.0 -0.06474233 0.06474233 0.016185582
0.091718294 0.091718294 0.29673564 0.10250868 -0.23738852 0.3398972 0.04316155 0.10790387
-0.07553271 -0.010790387 -0.037766356 -0.010790387 0.13487984 -0.12948465 0.1726462 0.15106542
0.0 0.07553271 -0.0863231 0.23199332 0.0809279 -0.0053951936 -0.05934713 -0.021580774
0.053951934 0.18883178 0.12948465 0.167251 0.1726462 0.2481789 0.1726462 0.070137516
0.021580774 0.04855674 -0.0863231 0.15646061 0.06474233 0.14027503 0.0 0.2481789
-0.10790387 -0.05934713 0.10250868 0.0809279 -0.22120294 0.12948465 0.04316155 -0.06474233
0.15106542 -0.11869426 -0.07553271 0.091718294 -0.016185582 0.016185582 -0.021580774 0.032371163
00000000: fa17 00f9 01ea ebd4 18ff e10b fbf8 e902
00000010: f5e1 dcdf 1adc def7 f10e 0ef5 09f6 ea13
00000020: faee 25fb f4ee f814 4927 2925 fe57 302e
00000030: 2c0c 4629 2bf2 3028 1917 3c41 4add fb2a
00000040: 1b35 522b 4a31 2f26 eb1a 1025 1345 2426
00000050: e305 02f3 100d d4f4 f2e7 df15 f70a 05f7
00000060: 11fa eaea 19e1 baf9 f8fa fdf3 f90b ea17
00000070: 0ffa 47e4 e612 f300 2d31 363b f635 1827
00000080: 3705 4728 2d09 1b4a 3109 2934 37dd 320e
00000090: 4037 3447 3330 3f33 e627 ee0e 0e31 162f
000000a0: f611 0b10 e9f8 fc0d f0ec f6f0 f2ef edf1
000000b0: fadc e2e6 12ef ecf9 fa00 0d13 0f15 0103
000000c0: d3f5 18f6 00f4 0c03 1111 3713 d43f 0814
000000d0: f2fe f9fe 19e8 201c 000e f02b 0fff f5fc
000000e0: 0a23 181f 202e 200d 0409 f01d 0c1a 002e
000000f0: ecf5 130f d718 08f4 1cea f211 fd03 fc06
